checkpoint.pt (torch, 839906 bytes, 20 tensors)

conv0.weight f4 [64, 103, 3, 3]
00000000: 94f3 2dbd 890f 5ebd b0c5 43bd e8a3 26bd
00000010: 9654 21bd 2780 75bc f0cb 5abd 01fd 2ebd
00000020: 785f 43bd 3fb9 e0bd 3bfb 83bd 8c91 d6bd
00000030: 0af2 a0bd 226f a1bd f99b 84bd e5bd 87bd
00000040: e1ce 84bd 1c1e 00bd 1674 86bd 1c41 ecbd
00000050: 8a4c 9cbd a34d a9bd 026d c1bd 0cb9 4ebd
00000060: d1da b7bd e462 c5bd 85b4 86bd 92ce e0bd
00000070: 2b8b 64bd 096e 6cbd 6dac b2bd 8025 28bd
00000080: 4c74 c6bd c5ba 8abd 31c7 69bd 5ab5 33bd
00000090: 05c3 ecbd df31 dbbd a2a3 81bd c507 eabd
000000a0: c72a 3bbd b40a 08bd 9872 45bd 7dfe 01bd
000000b0: 0399 69bd 66e8 85bd 5455 c3bd 3736 bdbd
000000c0: 673e 60bd e265 7abd ca7e 65bd 90c6 c9bd
000000d0: 97c1 72bd fb27 08bc 8d46 e2bd 95a7 27bd
000000e0: cc66 b5bd d78c 9cbd 1b51 03bd c6c7 9bbd
000000f0: 50ab 84bd 5684 0bbd d90d f0bc 92da 94bd
00000100: 7642 abbd a6e6 aebd bb34 2dbd add1 00bd
00000110: 558c 7bbd 78d2 61bd 4e94 31bd d228 b2bc
00000120: 3667 b1bd b79d 80bd 5a02 a3bd ee13 74bd
00000130: 302e 50bd 72ff 29bd 5011 aabd 258d e4bc
00000140: 12ff de3b 6989 cfbd 90df 66bd 85e0 b0bd
00000150: 2f48 9fbd 6051 2bbd fc48 dabc 9890 96bd
00000160: 9dd6 5dbd c396 b2bc 3dc7 1bbd d1da b8bc
00000170: 40a1 34bd 87b4 79bd 8d9a 80bd a135 a0bb
00000180: b53f d9bc 473a 4dbd e0d4 b0bc 8f9b 85bd
00000190: 5b6e dfbc 0359 3dbd 2e03 a3bd c6de 71bd
000001a0: 3c69 e3bc c785 7bbd c3ab f7bc 8c52 703c
000001b0: 739a 94bd 7800 1dbd 651f 90bd b864 8dbd
000001c0: 1b4e 3ebd 8346 54bd b788 8bbd cbe7 ebbc
000001d0: 44c9 23bd 24f9 bcbd ea15 86bd 8942 7ebd
000001e0: 2102 38bd 89ba 3abd 84fc a43b f5d3 f8bc
000001f0: 7f31 b6bb f872 d9bc 1eee 54bd dee7 c1bc
00000200: 1197 fbbc d0c3 47bd 8e21 24bd b17a 30bd
00000210: 2565 40bd 704b 2c3a 9b5b b13a 9f2c a5bd
00000220: be6b 8cbd 1a53 7bbd ec46 edbc 285f 9fbc
00000230: 0ce7 15bb 88a3 81bd d1a0 ffbb deaf 9b3c
00000240: 8e4b 8abd 6e47 92bd 77c3 f0bc 551f 59bd
00000250: 4478 0ebc 3b9f 0ebd cae5 15bd b797 94bc
00000260: 106f 413c 16cd 9abd 11f7 8fbb c0cd 3cbd
00000270: 9dca 85bd 3064 11bb bfed e9bb 1fc6 84bd
00000280: 37a6 8c3c 3735 913c 1d23 5cbd 8a00 3fbd
00000290: f783 8bbd f8be 41bd 5c2c e5bc 6960 06bd
000002a0: ad5c 42bd 68f9 1dbb 72a2 dbbc 6ac0 53bd
000002b0: 26db 76bd c96b dfbc 6de3 83bd 8aad c1bc
000002c0: 897c 1dbd 4187 43bd ba76 493c 751e c63b
000002d0: 698f a5bd 23d1 1ebd 013a cabc 7456 89bc
000002e0: 4cad 423c 39ca efbc bbda 08bd eba4 a73c
000002f0: 23ea 98bc be78 80bd 2da3 22bc a24f 36bd
00000300: dc6f 42bd 51b5 993b e425 3b3c c434 62bd
00000310: fd7c 84bb f45b 29bc bb01 37bd 4c9e 3ebc
00000320: 797c 92bc a699 523a a5db 40bc a846 4c3c
00000330: f99b 31bd b326 afbc d6d2 3b3d 03d7 d1bc
00000340: 1132 553c d139 0bbd a8a2 0abb 5139 2a3c
00000350: bb8a 863c 33a6 45bc 1bd6 463b c032 923b
00000360: 7b92 81bd 587d fd3b 7e40 88bc 505c 2abd
00000370: 1de6 c53b 6ebf be3c a20a a8bc 9263 8b3c
00000380: c616 8c3c 0d77 48bc 7348 15bd cc00 833c
00000390: 548a 26bd eb50 93bc 1520 963c 163c 84bc
000003a0: 8932 98bb 9337 633d 12e2 03bb d7ae 7f3c
000003b0: 7dde 1bbd dca1 15bc 1762 eabb b8d6 e43b
000003c0: 826b 7cbc 699e 4d3c 9ff4 3e3d 88ba b7bc
000003d0: 1f69 cfbb f4b3 27bc dfd4 d2bb 2133 2f3c
000003e0: 0247 823b 4553 e2bc 84c6 553d 75ef 3f3d
000003f0: 59ec a8bb fce4 b83c 7964 ecbc 129f 73bc
-0.042468622 -0.054214034 -0.04779595 -0.040683657 -0.039387308 -0.014984167 -0.053417146 -0.042721752
-0.047698468 -0.10972833 -0.06444403 -0.104769796 -0.07858665 -0.07882525 -0.06475062 -0.066280164
-0.064847715 -0.031278715 -0.065651104 -0.11535856 -0.07631786 -0.08266761 -0.0944462 -0.050469443
-0.08977283 -0.096380025 -0.065774 -0.109769 -0.055796783 -0.057722125 -0.08724294 -0.041051388
-0.096901506 -0.06773905 -0.05707473 -0.043874122 -0.115606345 -0.107028715 -0.063300386 -0.11427263
-0.045695093 -0.033213332 -0.04820499 -0.03173684 -0.05703069 -0.06538467 -0.095377594 -0.09238856
-0.05474701 -0.06113232 -0.05602912 -0.09852326 -0.059266653 -0.008310313 -0.11048613 -0.040931303
-0.088574976 -0.076440506 -0.03205977 -0.07606463 -0.06477988 -0.034061752 -0.029303478 -0.072682515
-0.08362286 -0.085400864 -0.042286616 -0.031449962 -0.061413128 -0.05513236 -0.043354325 -0.02174798
-0.08662264 -0.06280082 -0.07959433 -0.05958932 -0.050825298 -0.041503377 -0.08304083 -0.027899334
0.006805309 -0.10133631 -0.05636555 -0.08636574 -0.0777744 -0.041825652 -0.02664613 -0.07351798
-0.05415975 -0.021800404 -0.038031805 -0.022565277 -0.044099092 -0.06096318 -0.06279478 -0.0048892056
-0.026519636 -0.050104406 -0.021585882 -0.06523811 -0.027274301 -0.046227466 -0.07959591 -0.059050344
-0.02776014 -0.061406877 -0.03023327 0.014668118 -0.07256021 -0.038330525 -0.07037238 -0.06903976
-0.046461206 -0.051825058 -0.06813186 -0.028797051 -0.039986864 -0.09227207 -0.065471485 -0.06207517
-0.044923905 -0.04558805 0.005034985 -0.030374506 -0.0055600996 -0.02654408 -0.0519849 -0.023670133
-0.030711683 -0.048770726 -0.040071063 -0.043085758 -0.04697146 0.00065725204 0.0013531329 -0.080651514
-0.06856488 -0.06135855 -0.028964482 -0.019454554 -0.002287331 -0.06330019 -0.007801153 0.019004758
-0.06752692 -0.071425304 -0.02939008 -0.053008396 -0.008695666 -0.034819823 -0.036596097 -0.01813875
0.0118062645 -0.07558648 -0.0043934663 -0.046094656 -0.06532786 -0.002218496 -0.0071389372 -0.06483101
0.017169101 0.01772557 -0.053744424 -0.046631373 -0.0681228 -0.047301263 -0.027975254 -0.032806788
-0.047451664 -0.0024104957 -0.026810858 -0.051697172 -0.06026759 -0.027273076 -0.064398624 -0.02364232
-0.038448844 -0.04773641 0.012296373 0.006046111 -0.08083994 -0.038773667 -0.024685862 -0.016764857
0.0118821375 -0.029271232 -0.033411723 0.020464381 -0.018666333 -0.0627303 -0.009926599 -0.044509538
-0.04746996 0.004690804 0.011422608 -0.055226102 -0.00404322 -0.010336865 -0.044679385 -0.011634421
-0.017881619 0.00080337597 -0.011771117 0.012468018 -0.043361638 -0.021380758 0.045855366 -0.02561522
0.013012425 -0.033990685 -0.002115408 0.010389642 0.016423574 -0.012063551 0.003034002 0.0044616163
-0.06326767 0.0077358894 -0.016632315 -0.041591942 0.0060393945 0.02328464 -0.020512883 0.017015252
0.017100703 -0.012235415 -0.036446046 0.01599159 -0.040659264 -0.01798292 0.018325845 -0.016141932
-0.004644696 0.05547292 -0.0020123762 0.01560565 -0.03805398 -0.009132829 -0.0071528065 0.0069836043
-0.015406491 0.012549975 0.046620008 -0.022427812 -0.00632967 -0.010235775 -0.0064340676 0.010693342
0.00397575 -0.027627597 0.052191272 0.046859223 -0.005155128 0.022570126 -0.028856503 -0.014869468

conv0.bias f4 [64]
00000000: 7f89 0c3d 05de 363b 9731 55bd 26db 22bc
00000010: da2a f8bc 0231 1ebd 77ed 1e3d a628 b53d
00000020: bd83 603c fe94 a13b 253b 0bbd ea94 3f3d
00000030: b3ed 7f3d dd75 ffbd 6047 09be 8fda 53bd
00000040: b10d 683b 73ed 163d c6c0 8c3d 7704 743d
00000050: e2b9 943b 0203 97bd 41ed ae3d 6507 88bc
00000060: 90ce df3d a962 94bc 0ede 67bc 7733 273d
00000070: 9932 28bb ee41 43bd c1ba bfbd 55d7 04bc
00000080: ecb9 bdbc 8e8f 733c 724a 0cbd 9b53 393d
00000090: f657 df3d 7727 823c 364b e73b 9144 883c
000000a0: f343 babc d832 adbc d957 a4bd 6637 a1bd
000000b0: cb56 18bd 9b7c e0bd 850e 5dbd 3ac9 c63d
000000c0: 7d3f e23d d7aa aabc af91 afbb 00d9 0abe
000000d0: 08bb ab3b 9b5c a93d b9d4 1dbe 00eb c63c
000000e0: e94a 223d 5011 913d 441e b9bb a012 b93c
000000f0: 040d 11bd ab1f 643c 266d a4bb 4d88 133d
0.034310814 0.002790333 -0.052049246 -0.009939944 -0.03029387 -0.038620956 0.038800683 0.08845644
0.013703284 0.0049310913 -0.03399195 0.046772875 0.062482547 -0.124736525 -0.13406134 -0.051722106
0.0035408551 0.036847543 0.06872706 0.05957457 0.0045387605 -0.073736206 0.08541346 -0.016605088
0.109280705 -0.018113451 -0.014152063 0.040820565 -0.0025664924 -0.047670297 -0.09361792 -0.00810798
-0.023159944 0.014865769 -0.034250684 0.045245748 0.10905449 0.015887959 0.0070585264 0.016634258
-0.022737479 -0.021142408 -0.08024568 -0.078718945 -0.037192147 -0.109612666 -0.053968925 0.0970635
0.11047266 -0.020833416 -0.005357943 -0.13559341 0.0052408017 0.08269616 -0.15413179 0.024281979
0.03962222 0.0708338 -0.00564936 0.022591889 -0.035412803 0.013923566 -0.0050178943 0.03601866

bn1.weight f4 [64]
00000000: acb3 573f 6abb 613f c143 803f e1c7 703f
00000010: 4577 483f 7fe2 8d3f 6064 5f3f 0243 7b3f
00000020: e92e 663f 942c 8d3f df78 c93f 8adf 8b3f
00000030: 2967 613f 1c05 883f 1270 893f 26e0 ab3f
00000040: 5c45 543f d4c7 8a3f 61a3 393f 5f4f 903f
00000050: 0e1b 233f d5ba 823f e4a8 8b3f 5a9d 853f
00000060: 8376 3c3f 19d5 733f 8468 663f 3883 623f
00000070: fbc2 743f 120a a13f eac0 793f 1c5a 8e3f
00000080: c5cb 993f 2ee1 693f f2c8 a53f 270a 883f
00000090: 908a a03f c13d 6f3f 3e74 753f f2f0 603f
000000a0: 3e05 783f 5913 653f 7dd6 5f3f 9f97 693f
000000b0: a1a5 863f 9c4f 7c3f 5b26 9f3f e3bf 803f
000000c0: 7c34 643f 6190 a03f 8a78 803f 34be 723f
000000d0: d500 423f d4fd 8d3f fd64 a03f b330 673f
000000e0: 193f 7f3f 5ef2 773f cc8a 393f ccac 2b3f
000000f0: d33e 5b3f 41ae 643f e8b3 5e3f 5c88 8c3f
0.8425853 0.88176596 1.0020677 0.9405499 0.7830699 1.1084746 0.87262535 0.9814912
0.8991533 1.1029229 1.5740012 1.0927594 0.88048035 1.0626559 1.0737326 1.342778
0.82918334 1.0842233 0.7251492 1.1274222 0.6371316 1.0213267 1.0910916 1.0438645
0.73618335 0.95247036 0.9000323 0.88481474 0.95610017 1.2581198 0.9755999 1.1121249
1.201531 0.9135922 1.2951949 1.0628098 1.2542286 0.93453604 0.95880497 0.87867653
0.96883 0.8948265 0.8743666 0.9124698 1.0519296 0.98558974 1.243358 1.0058559
0.89142585 1.2544061 1.0036786 0.94821477 0.7578252 1.1093087 1.2530819 0.90308684
0.99705654 0.968542 0.7247741 0.6706054 0.8564274 0.8932839 0.86993265 1.0979114

bn1.bias f4 [64]
00000000: a0cc 74be c3e3 4cbe aea7 a2bc ed26 d83d
00000010: ee3c abbe c127 92bd fbfc 63be fc0f 3b3e
00000020: f779 7dbe 3c4e 7ebd e9dc a0bd 09ba e5bd
00000030: 3c27 6fbe 0531 02be 2ae8 01be 3393 853c
00000040: 16ae 91be bbb0 10be c978 5abe bfb1 0c3e
00000050: 4b1e 8bbe 5939 18be f919 cebd 694f b3bd
00000060: 4eb7 89be d747 69be 57ef 84bd cfec 2ebe
00000070: 8557 5cbe 328a e5bd f2af 0cbe 4a69 21bd
00000080: 6709 a8bd 32d7 16be c5bc 9cbd a9be 28be
00000090: 0f3d 79bd b50c 62be e906 d1bd 4ce3 dbbd
000000a0: 1bf2 dabd 40a8 27be 74d0 4abe 3685 71be
000000b0: 09d8 31be 52d3 39be 1352 ecbd d8af 34be
000000c0: 45a6 c0bd 86c2 edbd ce8a d83c 0b1b 64be
000000d0: 174d 52be b5a3 1fbe 87f9 0bbe 4710 533d
000000e0: d2c4 1bbe b80c 2bbe fbd7 7dbe a329 78be
000000f0: a5bb cdbd cad7 58be 1035 09be ca9a d53d
-0.23906183 -0.20008759 -0.019855347 0.105542995 -0.33444923 -0.07136489 -0.22264473 0.18267816
-0.24753557 -0.06208633 -0.07854635 -0.11217124 -0.2335481 -0.12714012 -0.1268622 0.016305542
-0.2845313 -0.14129917 -0.21335138 0.1373968 -0.2717155 -0.14865626 -0.10063548 -0.08755381
-0.26897663 -0.22781311 -0.06490963 -0.17082523 -0.21517761 -0.11207999 -0.13738993 -0.039407052
-0.08204918 -0.14730528 -0.076531924 -0.16478981 -0.060849246 -0.2207516 -0.10206396 -0.10736713
-0.10690709 -0.16372776 -0.19806081 -0.23585972 -0.17367567 -0.18147019 -0.11539092 -0.17645204
-0.094067134 -0.11609368 0.026433375 -0.22275941 -0.2053722 -0.15589793 -0.13669406 0.051529195
-0.152118 -0.1670407 -0.24789421 -0.24234633 -0.10045556 -0.21176067 -0.13399148 0.10429914

bn1.running_mean f4 [64]
00000000: 381a 9d40 0060 6fbe 8dc1 d1bd 058d 213f
00000010: 64bc b6be fed7 96be 9abf cb3e 15be b53f
00000020: d679 fdbf 0d9a b7bf b95b c73e 59ae 21c0
00000030: b716 5dbe 8427 16c0 474c adbe 5abd 37bf
00000040: c6d6 0fbf a3d7 c4be d7e8 18c0 52b8 7f3f
00000050: 1fcc 0d3d 5f04 e840 7f86 00c0 814e b340
00000060: 7585 1dc0 011c abbf 70fd aa40 bf71 ebbf
00000070: d23c ef3f 6147 b6bd 1aed d93f 7610 88be
00000080: f211 25c0 7c70 d0bf 0bfd 483c 549d 37c0
00000090: b40d e53e 1f18 19bf 03f5 38bf 2aa0 3fbf
000000a0: 60c1 f540 3111 8f40 fa1b 5b40 97d5 5640
000000b0: 7e4d 95bf 3c61 a540 f4eb 9b3e 01d6 9dbf
000000c0: 088b cabf 7583 a13e 0ba0 17c0 a8d5 ac40
000000d0: b7ce dfc0 488a 65c0 5458 c7bd 8c3f 5340
000000e0: b723 b6bf 4191 6ebf cf92 55c0 39ae 53c0
000000f0: 250b 24c0 1cb8 0b3f 66e5 53c0 7b2b 91be
4.9094505 -0.23376465 -0.10241995 0.63105804 -0.35690606 -0.29461664 0.39794618 1.4198633
-1.9802806 -1.4343888 0.38937166 -2.5262663 -0.21590696 -2.3461618 -0.33847257 -0.717733
-0.56187093 -0.38445768 -2.3892114 0.99890625 0.034618493 7.2505336 -2.008209 5.603333
-2.4612706 -1.3367921 5.343437 -1.8394088 1.8690436 -0.08900333 1.7025483 -0.2657506
-2.5792203 -1.6284328 0.012267361 -2.8689775 0.44737017 -0.5980243 -0.7224886 -0.74853766
7.6798553 4.4708486 3.4235826 3.3567865 -1.1664274 5.1681194 0.30453455 -1.2330934
-1.5823679 0.31545606 -2.3691432 5.401081 -6.9939837 -3.586565 -0.09733644 3.3007536
-1.4229649 -0.9319039 -3.3370855 -3.3075087 -2.5631802 0.54577804 -3.3108764 -0.28353485

bn1.running_var f4 [64]
00000000: b511 4b40 3bf3 3d40 49eb 803f 0c23 d33f
00000010: ea8b 9140 c2ea bf3e 386c 803f 8500 753e
00000020: e13a dd3f 95ca 183f 5f23 803f 773f fc3f
00000030: ce43 a740 c0d5 4c3f a41c c13d 8926 303f
00000040: f6b7 7e3f 32c8 c03e 5662 5141 fad1 653e
00000050: 3c57 c240 ad9a 7a40 6dae 3840 8346 2c40
00000060: f1fe 1b40 2e71 113f 9447 2440 5887 533f
00000070: 9162 153f 419a 2f3f ea09 e43e 7ee9 803e
00000080: 5d29 5140 e365 b53e 5585 7a3e c68b 913f
00000090: 7840 063f 46fa 7b3f 52cd 3c3e 8c09 3f3e
000000a0: 9c10 8040 ae85 1740 d924 843f 089f db3f
000000b0: e203 b43e 9058 1940 9fb3 5c3f 5d3a a43f
000000c0: a068 783f e7d0 173f 76f6 703f a130 fa3f
000000d0: 36aa 9740 7b44 eb3f 9260 203f 1cef b23f
000000e0: 42dc 9840 eb6f 3f3f 9a9a ea40 ca8b 9c40
000000f0: b9f4 123f 8681 583f f17a 3b3f 9a3a 783f
3.1729558 2.9679706 1.0071803 1.649507 4.5483294 0.37483793 1.0033026 0.2392598
1.7283593 0.59684116 1.0010794 1.9706868 5.227027 0.80013657 0.09429291 0.688088
0.9949945 0.37652737 13.086508 0.22443381 6.0731487 3.9156907 2.885646 2.6918037
2.4374354 0.56813323 2.5668688 0.82628393 0.58353525 0.6859475 0.44538814 0.2517814
3.2681496 0.35429296 0.24464925 1.137078 0.5244212 0.9842876 0.18437698 0.18655986
4.0020275 2.3675342 1.0323745 1.7157907 0.35159212 2.3960304 0.8621158 1.2830311
0.97034645 0.59303135 0.9412607 1.954609 4.7395277 1.8380274 0.62647355 1.397922
4.776887 0.7478015 7.3313723 4.892064 0.5740467 0.8457264 0.7323447 0.9696442

conv11.weight f4 [64, 64, 3, 3]
00000000: 20b4 2b3c f666 373c 4c2b 80bc 03fd 763d
00000010: 73dd 9c3d 4edc 9b3c a69f 813d cfac 663d
00000020: 5c38 92bc b212 b03d ed27 823c c8ab 80bc
00000030: a6f2 ac3d c9dc 103d 85a3 eebc 167b fb3b
00000040: 683d 5f3c 2328 34bd 6379 283e 8b61 0c3e
00000050: dbf8 a13d 085a 393e adfc 333e 8e69 863d
00000060: c43c c13d 5cf2 263d ba35 913d 3fd3 e1bd
00000070: 9212 10be 7edb 00be 7c38 01bd fa1d b5bc
00000080: ffa8 dbbd 0fdf cdbd eef4 92bd 83ef c2bd
00000090: ddc4 2bbd a7e2 d73c 96d2 c93b 0603 093d
000000a0: 2128 0e3e cad9 703d f595 18bc bcda 693d
000000b0: c3a3 033d ee08 243c 48e2 12bd f3cd bdbd
000000c0: c177 913d b223 783d c110 3bbd 9d8c a13d
000000d0: b8a9 fa3d e502 8a3c a112 8bbc 30de 8c3d
000000e0: 1243 64bb e0c2 383c b761 ef3c b15d d63b
000000f0: ec11 283d e14c a13c d678 e43c 76c2 d7bd
00000100: 66fc 17be 6592 1bbe fc78 24bd 4060 c1bd
00000110: b229 e5bd b031 e0bd c577 6cbd 395f a7bd
00000120: ccfa 9f3c 5f8e 59bd 9b49 0abc fecc de3c
00000130: 03e8 24bd d0dd 49bc c084 d83d 6778 8a3d
00000140: e97c 2fbc 6512 1c3d d934 5abd 806d 5b3c
00000150: b0dd 8c3d 2bc3 013d 5d2a 46bc b091 f93b
00000160: e6cd aeba d977 29bd d803 e4bc 2348 d53b
00000170: 59cc d1bb af01 1e3d 558b b93c cf5b 8fbb
00000180: d382 553d 8ea0 513d 3c9b 083e 9a10 d3bc
00000190: e61f e8bd d2ee c4bd 2503 4bbd 5d7a 1cbe
000001a0: ab06 05be e414 3cbd ae1e 07be f470 12bd
000001b0: 1a39 013d 4083 7cbc da1c 9cbc eba4 563d
000001c0: 5e8b a33c 3a35 0b3d 01ae cdbc e5b5 1e3d
000001d0: 897d c9bb 5d5c 6b3d 7d9a 283c 9fad 0bbd
000001e0: e813 85bc 9b1e 1fbd a64f a5bd 8ad4 7dbd
000001f0: 944e d7bd 110c 44bd 41d1 f5bc 706f a13b
00000200: 5b85 9ebd c5de 123d 9887 f0bc 185d 2abd
00000210: 5ae4 87bc 29f9 16bd 2bdf 8cbd 2236 8b3d
00000220: f8ff 26bd 1bd0 d0bd 08f2 133e ede8 de3d
00000230: 8b0d 933d 0711 54bd a923 21be c1f4 cabd
00000240: 6661 2bbd 5d45 c6bd 3530 38bd a483 c4bd
00000250: c1e9 10be 6c9c 7dbd 090f 09bc 3b25 04bd
00000260: 3ea1 cdbd 6d5c 91bd 6b34 f2bc a555 9cbc
00000270: 1afc 853c 2fd4 3d3c 876a 9cbd d216 e53c
00000280: c333 153d 6787 333d b2f2 1bbe 1735 a9bd
00000290: 04ce 06be 25fc e4bd dfe6 c2bd 816c 84bd
000002a0: f705 4abd d875 0cbc d1c0 66bd beed a0bd
000002b0: b013 e5bd b5d1 cabd 52f3 53bd f505 02be
000002c0: d92d 9abd 4585 23bd 6d01 ebbd 67d0 b3bd
000002d0: 1da3 12be 92b6 c3bd e5e8 05be 4f9d 75bd
000002e0: 30f2 42bd a2b8 7fbd e1a4 bdbc dca7 0bbd
000002f0: 8617 9ebd c99a 1bbd 060d bb3b 9fa6 7abd
00000300: 41de 62bb 3223 ff3d 4036 d03c 5b90 323c
00000310: bbff be3d 3302 a83c 67a7 bcbd 3a09 05be
00000320: 7d60 d4bd 414c 1dbd 6f54 67bd 3b12 9dbd
00000330: 0a28 0fbd e189 2ebd 7b78 a3bd d9a0 953c
00000340: c11f 8f3d acfc 113d 4fd8 ba3c 42d7 ac3d
00000350: f8ab 2a3d 97cb 923b 7e87 2f3d 0640 0b3d
00000360: 9443 e6bd da85 86bd 9d89 66bd 919c 47bc
00000370: 86f8 763d 5a82 743d 9a3b 4dbc c9f3 86ba
00000380: 614e 28bd 8d19 2dbd 75ae e63b 41d2 45bd
00000390: ed0e 963b 908c 133d c854 7c3c 7d7f 1b3d
000003a0: beca ba3d 6a9a a4bc 0e5e 8bbd 6c8c 153a
000003b0: b66a c3bd e03b edbc b329 9fba 01bb b4bc
000003c0: afe1 773b 34b9 abbc 82fb e5bd f2bc 453d
000003d0: ee77 71bd a878 33bd 974f 253d 2d54 97bd
000003e0: ad93 b6bd 780c 83bb 4dd3 ddbc b936 ccbc
000003f0: f80a 7abc f53e 163d 7946 193c a322 e53d
0.010479957 0.011193981 -0.015645646 0.060299885 0.076594256 0.019025948 0.06329279 0.056317147
-0.01784914 0.08597316 0.015888179 -0.015706912 0.08444719 0.035366807 -0.029130707 0.007674585
0.01362548 -0.04398359 0.16452555 0.13709085 0.079087935 0.1810075 0.17576857 0.06563102
0.09435418 0.040758476 0.07090326 -0.1102662 -0.14069584 -0.1258373 -0.03154801 -0.02210902
-0.10725593 -0.10052311 -0.07175623 -0.095183395 -0.04193579 0.026353193 0.006159137 0.03345015
0.13882495 0.05880145 -0.009313096 0.057093367 0.032138597 0.010011895 -0.03586033 -0.09267797
0.07102919 0.060580917 -0.045670275 0.07888148 0.122394025 0.016847083 -0.016976656 0.068783164
-0.0034830016 0.011276931 0.029221399 0.0065419306 0.041032717 0.019689979 0.02788965 -0.10535137
-0.14842376 -0.15192564 -0.040154442 -0.09442186 -0.111895934 -0.10946977 -0.05773141 -0.08172459
0.019528769 -0.05311429 -0.0084404005 0.027197357 -0.040260326 -0.012320951 0.10572195 0.06761246
-0.010710933 0.03810348 -0.053273056 0.013392806 0.06878221 0.031680267 -0.012095061 0.0076162443
-0.0013336509 -0.04137406 -0.027833864 0.0065088435 -0.006402534 0.038575824 0.022649447 -0.004374958
0.052126717 0.051178508 0.13340467 -0.025764752 -0.11334209 -0.09615864 -0.049563546 -0.15281053
-0.12990825 -0.04591836 -0.13195297 -0.03575225 0.031548597 -0.015412152 -0.019056726 0.05240337
0.019963916 0.033986308 -0.025107386 0.038747687 -0.006148998 0.05746113 0.010290739 -0.034101125
-0.016244844 -0.038847547 -0.08071832 -0.06197027 -0.105130345 -0.04786307 -0.030007007 0.0049266145
-0.07740279 0.03585698 -0.029361531 -0.041592687 -0.016588379 -0.03685871 -0.068785034 0.067974344
-0.040771455 -0.10195943 0.14447796 0.10884271 0.071803175 -0.05177405 -0.1573626 -0.09909964
-0.041840933 -0.09681199 -0.04496785 -0.09595421 -0.1415167 -0.061916754 -0.008365401 -0.03226207
-0.1004052 -0.07097707 -0.02956601 -0.019083807 0.016355563 0.011586233 -0.07637506 0.027964983
0.036426317 0.0438303 -0.152293 -0.08262079 -0.13164526 -0.11180905 -0.095166914 -0.06466008
-0.049322095 -0.008573018 -0.056336228 -0.07857846 -0.11185396 -0.0990328 -0.05174572 -0.12697585
-0.07528276 -0.039922018 -0.11474881 -0.08779984 -0.14320035 -0.09556307 -0.13077123 -0.059964474
-0.04759425 -0.06243194 -0.02314991 -0.03409563 -0.077193305 -0.03798941 0.0057083396 -0.06119406
-0.0034617337 0.12457885 0.025416493 0.010898675 0.093261205 0.020508861 -0.09211617 -0.12991801
-0.10369966 -0.0384028 -0.056477007 -0.07669493 -0.034950294 -0.04261196 -0.07981964 0.018265175
0.069884785 0.035641357 0.022808222 0.08439495 0.04166791 0.004479836 0.042853825 0.033996604
-0.11243358 -0.06568499 -0.056283582 -0.012183324 0.060295604 0.059694625 -0.012526417 -0.0010296042
-0.041090373 -0.042260695 0.00703984 -0.048296217 0.004579416 0.036022723 0.015401073 0.03796338
0.09120701 -0.020093162 -0.06805049 0.00057048234 -0.09541838 -0.028959215 -0.0012143165 -0.022061827
0.0037823727 -0.020962335 -0.11229612 0.048275895 -0.058952264 -0.04381624 0.040359106 -0.07389102
-0.08914886 -0.003999289 -0.027078295 -0.024928438 -0.015261404 0.036681134 0.009355181 0.11188247

conv11.bias f4 [64]
00000000: 7706 c83c 9df7 b9bc 5f11 20bd a519 5d3d
00000010: c8ba 083e ee5c 82be 7b44 07be 7435 3dbd
00000020: 68b5 4bbd 2c74 bc3d 3f69 4c3d 2798 d2bc
00000030: 5f36 a83d 9889 77bd 66f5 06bc d7dc 0fbe
00000040: 6e24 b5bd d11c c3bd 0269 58bd 77e8 f23c
00000050: d75f b73d b330 373d 4b22 9fbb 82a1 e8bd
00000060: b1b5 063e 9174 3dbd 7c65 b63d 3ac0 553d
00000070: 4f90 a03d eb94 013d f14f f43d f663 a6bd
00000080: 2249 9b3c 8d55 8a3e ccbd 9b3b 3f95 80bb
00000090: c2b3 d33d 1ae8 533b da0d 75bc 6b89 26bd
000000a0: 5e23 0cbd 2a77 9abd 7493 a8bd 4423 01bd
000000b0: e903 1bbc 29a8 91bd 6566 fc3b 4ea4 89bc
000000c0: 84b4 4e3d 0791 e4bd 9c9d 553d f74b bb3d
000000d0: 0452 2dbb ce7e 5c3e c365 083e 4d0d 8b3d
000000e0: f12d 4b3b 1c4c 7cbd 3e51 de3d dea7 013d
000000f0: e582 19bd 9379 42bd ed03 f83d 9bd3 453c
0.024417145 -0.022701079 -0.039079066 0.053979535 0.13352501 -0.25461525 -0.13209717 -0.046193555
-0.04973355 0.092018455 0.049905058 -0.025707318 0.082134955 -0.060433954 -0.0082372185 -0.14049087
-0.08844839 -0.09526981 -0.05283452 0.029651864 0.08953827 0.044724178 -0.004856383 -0.1135893
0.13155247 -0.046253745 0.08906075 0.052185275 0.07840025 0.03163616 0.1192931 -0.08124535
0.01895577 0.27018395 0.00475285 -0.0039240415 0.103370205 0.0032334388 -0.014956916 -0.040658396
-0.034213416 -0.0754226 -0.082312495 -0.031527773 -0.0094613815 -0.07112152 0.007702636 -0.01680198
0.050465122 -0.11160474 0.05215226 0.091453485 -0.002644659 0.21532747 0.13320069 0.06789646
0.0031002725 -0.06159602 0.108553395 0.03165423 -0.037478346 -0.047479223 0.12110124 0.012074376

conv12.weight f4 [64, 64, 3, 3]
00000000: 8666 80bc d66c 85bc 357d 94bc cebf 93bd
00000010: 1cf0 38bd 70cd 99bc 6376 24bb 7918 33bd
00000020: 1e86 1fbd a7cb acbc 601d bc3c 04a0 693d
00000030: 3c44 a1bc 53f9 503d a97c 2b3d 8687 263c
00000040: 92e3 233b 1f7d 323d d8f6 fd3b 1487 493b
00000050: b67b fbbc c593 53bc ebb1 8e3c 4fb3 e2bb
00000060: b2db 933b c8c5 873a 32fd e53c b901 af3d
00000070: 9f82 c73d 4793 0e3d 292d 883d 5aac 383d
00000080: b4bd 8d3d 6439 6f3d 4f25 303d 6861 eebb
00000090: b809 00be 60ee fcbd cb0b 94bd 7e54 bebd
000000a0: abd4 fabd 2764 d3bd 1651 0cbe ee3c d2bd
000000b0: b31c fabd 3c08 8cbc a60b 2cbc 91bc 02bc
000000c0: 5989 91bd 16a8 a1bd a69b afbc f596 f1bc
000000d0: 8fc6 7439 8b62 6abd 457d 1ebd f947 b0ba
000000e0: 7128 9ebc e1af 35bb fe1e 803a f2f9 1dbd
000000f0: 0726 673b d0bc 0abd b916 fdbc f916 043b
00000100: fce5 44bd 4575 9dbd 5c44 4fbd 69b3 c7bd
00000110: 3db5 b9bd 573a 2ebd 1b89 62bd 8e1b 76bd
00000120: 036e 75bc abf6 31bd 396f 623c f19b cbbc
00000130: 9080 c53a 869b 1c3c ea64 2e3b e4dc 0c3d
00000140: e27c ae3c b413 78bc 7994 2cbd 0687 3bbd
00000150: 7420 7fbd 711e dbbd 8ce0 76bd 5bae 5dbd
00000160: 2d44 c0bd d29b 3dbd 90ba febb 1db3 e0bc
00000170: dbc9 f93b 9e38 543c bc75 67bd 5bc8 41bb
00000180: 1e0a 113d 61f2 bf3c 2303 193c ab8d 8b3b
00000190: 34e4 243d c6de 063d 5377 8b3c 8694 b33c
000001a0: c97b a23b 9a9c adbc f543 553c d481 d63c
000001b0: 2b98 d23c 0a6c 12bd 4522 023c adad 113c
000001c0: 7a46 33bd 4426 91bc 6879 bbbb 12a9 dfbc
000001d0: c1af 013c 3f22 0abd 6e09 03bd 883a 98bd
000001e0: b530 68bc 3a9e 9b39 329e 86bd cf64 72bd
000001f0: 3b00 9ebd 9d05 bdbd d114 c5bc c6c6 353b
00000200: 27cd 043c 6911 ecba 7c38 aebc a14e 0b3c
00000210: 18de c73c 3629 0bbd 1dea 5fbc 651b 32be
00000220: d287 54be 26ae 2ebe df9d 6cbe 6fc8 7dbe
00000230: fc02 8fbe 6ee9 32be 2d74 83be 0c38 37be
00000240: b37a 7cbd cfac d1bc af60 2abc ccb2 78bc
00000250: 8dbf 95bc edde cbbc 4ee9 c8bc 423a 02bd
00000260: ab63 88bc 5ae3 d93d 527e 6c3d f3e6 3e3d
00000270: 3161 e13d 0410 883d 972e 173c 7f23 6f3d
00000280: 4e99 b43c 321d 5b3d d862 6abc 06bd 8ebd
00000290: 6e64 82bd 38c2 b3bd a8f7 8bbd 2847 f4bd
000002a0: 303a 8dbc 1b1e bdbd 45a6 b9bd 04f6 5f3d
000002b0: 7d54 9e3c 8595 493c 63f5 473d 4f93 673d
000002c0: 857d 3b3c 286a 593c f85b 043d 91bd dcbb
000002d0: 1258 d6ba 3e98 dd3b 572f 363d e323 4d3d
000002e0: 4ab0 c7bc 54d4 553d eb11 123d 1b15 473d
000002f0: 09a2 d83c 9aec b5bd 15b1 d3bd 33da acbd
00000300: cd3c 33be 0398 4cbe 012e cebd 33bf d0bd
00000310: 95b1 1bbe c7c6 93bd af3f 73bd 1376 623b
00000320: b494 21bd 7a14 88bc 9408 27bd 4205 2b3c
00000330: 6517 80bd dab8 89bc 3ea9 ad3c 6bec a5bd
00000340: 6da4 f2bd 8e04 06be 9366 13be 9f2a e5bd
00000350: a757 b3bd 068a a1bd 2af1 d0bd 2311 d6bc
00000360: 0730 c0bc 7014 a3bd 5bb5 6cbd 3c3b 15bc
00000370: 64b2 4ebd 1fba d2bc 488f 313c 19ff 793c
00000380: 5fbe f0bc 0a38 903d 0c50 563d 626e 933c
00000390: a807 8d3d 5228 283d 4c8b 123d e20a 083d
000003a0: f043 8e3d 05c6 663d 82b9 423d 8cde 75bc
000003b0: 4af1 03bc 753d 923d f91c ae3c 4777 933c
000003c0: b152 86ba b4d5 c93c 1736 183d 9ee6 4cbc
000003d0: 3f4f debc 26a8 02bb cc92 46bd 3c5b 3b3a
000003e0: 75aa 32bd 3ba8 003d b99a 40bd cecf 93bc
000003f0: 9c17 1ebe ca3c 07be 6d85 71bd db5a e4bd
-0.015673887 -0.016287249 -0.01812611 -0.07214318 -0.04515086 -0.018774718 -0.0025094978 -0.04372451
-0.038946263 -0.021093203 0.022963226 0.05703737 -0.019685857 0.051019024 0.041866932 0.010164147
0.0025007469 0.043576356 0.0077503733 0.003075068 -0.030698638 -0.012913649 0.017418822 -0.006918348
0.0045122737 0.0010358626 0.028074834 0.085452504 0.09741711 0.034808423 0.066492386 0.045086242
0.069209486 0.05840434 0.04300433 -0.0072747953 -0.12503707 -0.12350154 -0.07228812 -0.09293459
-0.122475944 -0.10321837 -0.13702807 -0.10265528 -0.12212505 -0.01709377 -0.010500824 -0.007979528
-0.07106275 -0.07893388 -0.021436524 -0.029490927 0.00023343622 -0.057222884 -0.038693685 -0.0013449184
-0.019306393 -0.002772324 0.0009774861 -0.038568445 0.0035270469 -0.033871472 -0.030894624 0.0020155294
-0.048070893 -0.07688383 -0.050602302 -0.09751017 -0.090677716 -0.042536106 -0.055306535 -0.060084872
-0.014979842 -0.04344813 0.013820463 -0.024854632 0.0015068222 0.009558564 0.0026610442 0.034390345
0.021299783 -0.015141416 -0.042133782 -0.045783065 -0.06228681 -0.106991656 -0.06027274 -0.054121356
-0.093880035 -0.04629118 -0.007773705 -0.027429158 0.00762294 0.012952952 -0.056508765 -0.0029568884
0.03541004 0.023431005 0.009339127 0.0042588315 0.040256694 0.032927297 0.017024672 0.021921407
0.004958604 -0.021192838 0.0130166905 0.026184954 0.025707325 -0.035747565 0.007942741 0.008891505
-0.043768384 -0.017718442 -0.00572126 -0.027302299 0.007915438 -0.033724066 -0.031991415 -0.07433039
-0.014171769 0.00029681792 -0.06573142 -0.05917817 -0.07714888 -0.09229586 -0.024057778 0.0027736886
0.008105553 -0.001801056 -0.021267168 0.008502633 0.024397895 -0.03397485 -0.013666657 -0.17393263
-0.20754936 -0.1705862 -0.23107098 -0.2478349 -0.27931964 -0.17471859 -0.25674573 -0.17892474
-0.061640453 -0.025595097 -0.010399028 -0.015179347 -0.018279815 -0.024886573 -0.02452531 -0.03179384
-0.016649088 0.10639067 0.057737656 0.04660697 0.11004866 0.0664368 0.0092274165 0.05838346
0.022045758 0.05349464 -0.014305793 -0.06969647 -0.06366812 -0.08777279 -0.06834346 -0.119276345
-0.01723966 -0.09234258 -0.090649165 0.05467798 0.019327397 0.012303715 0.048818003 0.05653697
0.0114435 0.0132699385 0.03231427 -0.0067364653 -0.0016353151 0.0067625334 0.04447874 0.050083052
-0.024376053 0.052204445 0.03566162 0.048604112 0.026444452 -0.08883019 -0.1033651 -0.08440056
-0.17503662 -0.19979863 -0.10067368 -0.10192718 -0.15204461 -0.07215648 -0.059386905 0.003455524
-0.039448455 -0.016611326 -0.040779665 0.010438265 -0.06254462 -0.016811777 0.021198865 -0.08101734
-0.11847768 -0.13087675 -0.14394598 -0.1118977 -0.08756953 -0.07887654 -0.102022484 -0.026131218
-0.023460401 -0.079628825 -0.05779014 -0.009108361 -0.050463095 -0.025723515 0.010837384 0.015258574
-0.029387651 0.070419386 0.052322432 0.01799697 0.06886226 0.041054077 0.035777375 0.033213504
0.06946552 0.05634119 0.047540195 -0.015006673 -0.008053133 0.07140628 0.02125405 0.018001212
-0.0010248033 0.024638034 0.03716096 -0.012506155 -0.027137397 -0.001993665 -0.04847984 0.0007147079
-0.04361959 0.031410437 -0.047022555 -0.018043425 -0.15438694 -0.13206783 -0.058965135 -0.11150142

conv12.bias f4 [64]
00000000: 74ce 013d 908c 8bbc 2330 3dbd 6cd0 193c
00000010: 7026 793c 1901 133c b6d7 7abc 3720 d43d
00000020: ef8f 163d 74c5 223d 07f6 8dbd 2f0c 513d
00000030: 623c 8f3d a669 ffbd dea1 04be 04f0 863b
00000040: 87b6 b33c 2445 ed3c 93d2 5d3d 6def 323c
00000050: 2061 3f3d 23cb 1fbd a053 ad3d 4f04 64bd
00000060: cb93 fc3d 5790 c43c 270f cbbc e6a0 c23d
00000070: 9488 883c 0939 9ebd c57a 51bd 48b7 93bd
00000080: 4a22 15bc 2185 493d c167 80bd 911f 313d
00000090: f76c ba3d 7111 343d 5df3 343d 4f27 3bbb
000000a0: 2349 d93c 2aee ccbc 8b99 afbd b136 4abd
000000b0: bcf1 c939 a924 d4bd db38 44bd cc37 833d
000000c0: e2f7 f83d bb82 6dbd fc3c bcbc 4664 0dbe
000000d0: 6e1c 43bd 8698 103e 1356 a9bd 513a 373d
000000e0: c719 0a3d ff5a 573d a719 113d 428c 87bc
000000f0: 0043 89bd cc63 0c3d 4448 033c ff07 c23d
0.03169103 -0.017034799 -0.046188485 0.009388071 0.015206918 0.00897243 -0.015310219 0.10357707
0.03675836 0.039739087 -0.069316916 0.05103701 0.06993939 -0.12471323 -0.12952372 0.0041179676
0.021937622 0.028963633 0.054155897 0.010921341 0.046723485 -0.039012086 0.08463216 -0.05566817
0.12332877 0.023994608 -0.024787499 0.09503345 0.016666688 -0.07725722 -0.051142473 -0.072126925
-0.009102413 0.049199227 -0.062697895 0.043242995 0.09102815 0.043961946 0.0441774 -0.0028557365
0.026524132 -0.02501591 -0.08574208 -0.049368564 0.00038517814 -0.10358555 -0.047905784 0.06407127
0.12156655 -0.057986002 -0.022978298 -0.13807783 -0.047634535 0.14120683 -0.082683705 0.04473335
0.03371599 0.052577015 0.035424855 -0.016546372 -0.06702232 0.03427486 0.008012835 0.094741814

bn2.weight f4 [64]
00000000: 36bb 463f 9832 633f 5ad1 6c3f a947 6c3f
00000010: efd8 3f3f cee8 5b3f ec32 833f af05 903f
00000020: 1df8 8a3f 898e 783f 02d8 ac3f f5a2 8a3f
00000030: e5ae 8e3f dfd3 743f 13a4 7d3f 1203 773f
00000040: e26d 963f e279 893f edfa 5f3f e0fe 8e3f
00000050: b5c7 6f3f dbb8 733f 477b 873f 544d 813f
00000060: 637e 5e3f e577 593f 55f5 993f d6e3 923f
00000070: ce0f 853f 1de8 7e3f 6510 893f 0e9e 6d3f
00000080: f3da 6a3f 7672 733f 5f11 8a3f 4dfb a53f
00000090: 220e 723f d238 613f 0a55 753f 8f41 8d3f
000000a0: f118 883f fa16 833f c0bb 653f 9b70 823f
000000b0: 43c5 733f 88e6 7b3f 0224 863f 9311 8b3f
000000c0: fe13 8d3f 7ad4 743f 2763 9c3f 9db5 493f
000000d0: 963f 883f 27ca 833f 3b7c 813f 030a 943f
000000e0: 59be 713f 7ac9 7a3f a342 633f 803e 5f3f
000000f0: 9859 8e3f 3c6b 473f 3ee0 563f 9e64 8f3f
0.7762941 0.88749075 0.92506945 0.92296845 0.7494039 0.85902107 1.0249915 1.1251734
1.0856968 0.9709249 1.350342 1.083098 1.1147124 0.9563579 0.9907848 0.9648906
1.1752284 1.0740321 0.8749226 1.1171532 0.93664104 0.9520394 1.0584496 1.0101724
0.869116 0.8494857 1.2027994 1.147578 1.0395448 0.99572927 1.0708128 0.928193
0.9174034 0.9509653 1.0786551 1.2967316 0.94552815 0.87977326 0.95832884 1.1035632
1.0632612 1.0241387 0.8973961 1.0190614 0.9522287 0.9839864 1.0479739 1.0864738
1.1021726 0.95636714 1.2217759 0.78792745 1.0644405 1.0296067 1.0116037 1.1565555
0.9443107 0.9796368 0.88773555 0.8720474 1.1121092 0.77898 0.83935916 1.1202581

bn2.bias f4 [64]
00000000: 5e24 b9be ab8b 42be 4cc0 3abe 527a 24bc
00000010: f517 8cbe 8a76 74be 2935 5abd 90b0 5bbc
00000020: f0d5 95bc bedd 38be 73ce f1bb a4d1 92bd
00000030: d75a b43a 7808 0fbe 50c9 03be 435c 94bd
00000040: 6a53 c9bd b18a 59be 2f3e c3bd f8e6 df3c
00000050: 949c a8bd dc33 36be 1f38 98bd 99a5 4ebd
00000060: 207a e9bd 6d23 d4bd 080c 1d3c 120b 74bd
00000070: 13ea d3bd 019e cebd 7dd8 0dbe 7e14 f6bd
00000080: 0616 18be 0ded 2dbe 96b8 c4bb 4cae f5bc
00000090: 64d8 babc 4c31 79be 3a6a afbd 7e5f 533d
000000a0: e802 80bd 541a cfbd 11c8 5ebe 7abf 8b3d
000000b0: ed5f 10be 145b 8cbd 736d 36be 92e9 e7bd
000000c0: 6d99 cdbd ca42 1abe 4b77 41bd 4511 29be
000000d0: c540 2dbd d9dc 923c dd48 45be 408a d3bd
000000e0: a35d bebd b60c 24be f1e7 f3bd 054a 29be
000000f0: 8b40 e3bd 4b29 8cbe aaf6 42be 214b e5bc
-0.36160558 -0.18998592 -0.18237418 -0.010038929 -0.27362028 -0.23873344 -0.053273354 -0.013408795
-0.01829049 -0.18053338 -0.007379347 -0.07168892 0.0013759983 -0.13968074 -0.12869763 -0.0724416
-0.09830363 -0.21244313 -0.09533345 0.027331814 -0.0823299 -0.1779322 -0.07432579 -0.050450895
-0.114002466 -0.103583194 0.009585388 -0.05958087 -0.103473805 -0.100887306 -0.13852115 -0.12015627
-0.14852151 -0.16984959 -0.0060034497 -0.029990338 -0.022808261 -0.24335212 -0.08565183 0.05160474
-0.06250554 -0.101124436 -0.21756007 0.06823631 -0.14099093 -0.06853309 -0.17815189 -0.11323847
-0.10039029 -0.1506454 -0.047232907 -0.16510494 -0.042298097 0.017927574 -0.19266076 -0.103291035
-0.092952035 -0.16020474 -0.11909474 -0.16532142 -0.11096295 -0.27375254 -0.19039407 -0.027989926

bn2.running_mean f4 [64]
00000000: ce18 b63f 74ae 3ebf 6db9 7c3f 8e28 4040
00000010: 93e1 303d 451f 15bf aac6 9b3f 8e38 4d3f
00000020: 572c 96c0 6ffb 1d40 b07b 253f a484 eabc
00000030: 5215 c23e aecb c1bf 3efb 3e3f 43bb be3e
00000040: 1c36 223f ea4f 113f 3c26 31c0 a610 7e3e
00000050: 85dc 53bf 5c46 4d40 13b4 18c0 eb5f 8540
00000060: cc76 aabf 68a1 26bf be46 8d40 5e18 b6bf
00000070: 7ad2 0e40 0899 0c3f 3db4 8040 4aef 0040
00000080: c158 ffbe 0150 8a3e a52c 2c3f 5a5d 0cc0
00000090: d0df 7bbf 3b37 96bf 96c4 c3bf 6bb3 433e
000000a0: 4207 f340 605d 5c40 2bf7 033f a9e4 2440
000000b0: 362c 853e 28af 1840 bc82 be3e 3dc3 32bf
000000c0: 104f 85bf 8335 9040 6bd7 c5bf 1410 7240
000000d0: a116 e3c0 6fcc 95c0 b3f0 8940 64ae 7f40
000000e0: d830 ed3c 23d1 82bf 04ea 0ec0 b6f5 d1bf
000000f0: 91d0 1bc0 6c40 9ebf 3802 25bf 60a6 1440
1.422632 -0.74484944 0.9872044 3.0024753 0.043183874 -0.5825084 1.2170002 0.8016442
-4.6929126 2.4684713 0.6464186 -0.028627701 0.3790689 -1.5140283 0.74602115 0.37252244
0.63363814 0.56762564 -2.7679586 0.24811038 -0.8275836 3.2074194 -2.3859909 4.1679587
-1.3317504 -0.65090036 4.4148855 -1.4226186 2.2315965 0.5492101 4.0220017 2.014605
-0.498724 0.27014163 0.6725562 -2.1931977 -0.98388386 -1.1735605 -1.5294368 0.19111411
7.594636 3.4431992 0.51549023 2.5764563 0.26010293 2.3856907 0.37209117 -0.6982916
-1.0414753 4.506532 -1.5456365 3.7822313 -7.0965123 -4.6812053 4.310632 3.995019
0.028953955 -1.0220073 -2.2330332 -1.640311 -2.434605 -1.236341 -0.6445651 2.3226547

bn2.running_var f4 [64]
00000000: 52ea 1d42 9e7d a741 e080 9741 bf09 8941
00000010: fff5 7a41 ba8d 3340 a7dc 2541 43a9 2241
00000020: d2d5 ae41 66c5 7841 5281 9440 2135 0f41
00000030: 6a2d 5941 eb84 7241 4866 1e41 ee0e 6741
00000040: e286 6040 5daf 2d41 0a00 0b42 0dd3 7441
00000050: beaf d840 a0d8 b041 5369 8141 b1b6 b541
00000060: a885 1e42 1a47 7b41 3001 a041 9f81 cb40
00000070: b362 7141 2486 0941 301e 2841 4530 f541
00000080: 7008 9b41 88ce 2941 c2e2 d940 0b7a 7f40
00000090: dc6c c741 24bb a541 307c cb41 6c41 4741
000000a0: 7e0b 0242 cec0 a941 026e 9641 b650 4541
000000b0: 257c be40 1be0 a441 0046 d540 4b55 b241
000000c0: c680 aa41 07ac a841 7372 6840 7bae a841
000000d0: 9b3e cf41 97fb a241 4b4c e741 43f6 4a41
000000e0: 324e 9741 8e6a f940 c9a0 8541 7071 7e41
000000f0: b57a 5441 31ad 7241 0c5d 4241 262e dd40
39.47883 20.936337 18.937927 17.129759 15.685058 2.8055253 10.36637 10.166324
21.854404 15.548193 4.640786 8.950471 13.573587 15.157451 9.899971 14.441145
3.5082326 10.855313 34.75004 15.301526 6.771453 22.105774 16.176428 22.714205
39.630524 15.704859 20.00058 6.359573 15.0865965 8.595249 10.50737 30.64857
19.37912 10.612923 6.8089304 3.991824 24.928154 20.716377 25.435638 12.453472
32.511223 21.219143 18.803715 12.332205 5.9526544 20.609426 6.664795 22.291647
21.312878 21.083998 3.6319854 21.085196 25.90557 20.372847 28.912252 12.6851225
18.913181 7.794257 16.703508 15.902695 13.279958 15.167283 12.1477165 6.9118834

conv21.weight f4 [64, 64, 3, 3]
00000000: 5b2b 17bd f9fd 25bc 288b 3e3c e58b ffbc
00000010: 4764 4cbc 53ef f9bc 90f1 f63b fa38 63bc
00000020: c49e c1bc 1f85 2bbc 4c76 87bc 7f5d 26bc
00000030: 3f03 3abd 728d 1ebc 008a a6bc e0ff 12bd
00000040: bb85 9e3c 391b 24bd fc2d 823c ade9 823c
00000050: f610 1bbd 2e2f f03c 6964 91bc d404 393c
00000060: 99e5 a63c 1d50 2fbb d368 6fbc 0235 ddbc
00000070: 2bcf 493a b0e6 093c b5e5 2cbd 300d 3fbd
00000080: 7808 f43c e1c2 e3bc 749c 11bd 1004 10bc
00000090: deba b4bc 5e4f 26bd 8892 83bb b860 963c
000000a0: 8ff1 2cbd 9d67 f6bb 5fb1 edbc 1006 14bd
000000b0: 04c4 6a3c 0112 043c af60 10bd 241c 5e3c
000000c0: c546 a0bb 5dff e1bc 80ec 81bc 1f9d 2ebc
000000d0: fe1a a2bc ee18 353c 66cc f33c 5137 693b
000000e0: 03e1 01bd 8b54 13bc 8725 54bc 4c74 25bc
000000f0: b2f5 f93b fb13 0a3d 6e8c 8d3c ebca cd3c
00000100: 0b00 1a3d cf0f 653c cd6b b5bb 81c9 ce3c
00000110: ef6a aa3c 5dbb dfbc 5a3b 30bc 2430 c13b
00000120: 84fc c63c 26af f2bb 26be 0dbd 2476 49bd
00000130: b78d fcbc d684 973c 7a53 823c c866 c33c
00000140: c95f 063d ea3d d03c 07d1 3e3b fb67 f23b
00000150: fc53 183d b9ad 56bc a3e5 fb3c 2ec2 1b3b
00000160: 75f0 04bd 1499 82bc 6507 933c 1c70 b9bc
00000170: 0400 023c 8f98 92bc aa81 c33a af2d 063c
00000180: 2ada 653c 631c 233d dc45 18bd fe2d 21bd
00000190: 4600 013c 6be7 fa3b 8bd7 27bc 201f 173c
000001a0: 20ff cabc f8d7 14bd c4ea b9bc e875 9cbc
000001b0: 8dd2 0cba 95a1 41bb 2129 2ebd 6966 6f3c
000001c0: 0d7e 83bc 9b48 143b ce69 dd3c 86f1 f0bc
000001d0: 5b04 853b 0918 fabc 1b65 9a3b 2e7a 883b
000001e0: 82da f03c 8fe9 85bc 5bee 3abd e1ff c1bc
000001f0: 1ac4 023d e5b5 333c ef7e 47bb 14bc 3dbd
00000200: 3ec0 9abc 3899 753c 4050 a33c 33c4 fe3c
00000210: e7ae ed3c b0e1 033d b2ba f7bb 58ae b4bb
00000220: 734f 44b9 7d1a b73c 66e0 3a3c 6763 f33c
00000230: 8922 1cbc 28f9 3cbd 8846 8c3c 583f 3abc
00000240: d247 4fbd 6a19 8bbc a6ca 3e3c db7b df3b
00000250: ba8e 233c a5f3 bf3c 816e 8dbb 11b8 9a3b
00000260: d0e2 18bd c08a 993c 9057 153c ed10 133d
00000270: 82d7 843c fc00 19bc 0a2f 16bd 8b86 cbbc
00000280: 67c4 03bd a503 d0bc e43f c03b 18ec 20bd
00000290: 4a83 a9bc 4693 41bc 3eb5 1fbd f394 8a3c
000002a0: 36dd d2b8 c40e 2ebc 820b de3c 84d9 a3bc
000002b0: 1b17 1bbc 9f21 fcbc bd98 e5bb 11fc c33c
000002c0: 38f1 72ba c6d4 2abd 7b8a fabc ec50 a2bc
000002d0: d424 03bc 9ae1 93bc 67ab 1dbd aa47 0fbd
000002e0: b204 df3c 3cad 793a 5015 393c 5d8c 5e3b
000002f0: 09ce ab3b 8e90 3cbd c7b9 1f3c 149f 173d
00000300: 138d cd3b c74b d13c 3665 4fbc 8e4c 543c
00000310: 74d4 053d 7f75 723c a613 f13a 0a02 c539
00000320: 264a 03bd 6f74 d9bc f438 4a3c 43ec 08bd
00000330: 057d 28bd 0056 463b 2ffb 20bc 28bb 2c39
00000340: a326 1abd d8c5 5abc 17c7 a0bc c5ea a93c
00000350: 8c26 bbbc 073e 54bd 4c50 db3c 8f73 4b3c
00000360: 2a7a 103d 41b3 b1bc 868a 253d 72d8 02bc
00000370: 3889 3dbc 6be4 913c 20b8 febb 0a09 a2bc
00000380: 0d11 333d 8a89 02bd beb6 013d 80ea 3cbc
00000390: 588a 0cbc a9d5 cebc 63d7 973c cead bfbc
000003a0: 6a84 073c 3e3c eebc 13be d13c f50b b6bc
000003b0: bddd 14bc 3c8a 03bd 203b 0cbd bbd4 f4bc
000003c0: f2fc 5ebc 8c6c d0bc 7e5b aebb 34b6 d5bc
000003d0: 0cac d3bc 3472 0fbd b434 0f3a 3908 8d3c
000003e0: 016e f3bc f9dd bf3c 68a7 3b3a 17ae 45bc
000003f0: 30bc b4bc 5fd3 5f3c 5f7f a83c 4eea f2bc
-0.03690658 -0.010131353 0.011629857 -0.031194637 -0.01247508 -0.030509626 0.0075361207 -0.013868565
-0.023635276 -0.01046875 -0.0165359 -0.010154127 -0.045413252 -0.009677278 -0.020329475 -0.035888553
0.019350877 -0.040065024 0.015891068 0.015980566 -0.037857972 0.029319372 -0.017748075 0.011292655
0.020373153 -0.0026750632 -0.014612394 -0.027002815 0.0007698412 0.008416817 -0.042211253 -0.046643436
0.029789194 -0.027802886 -0.035549596 -0.008790031 -0.022061761 -0.040603034 -0.0040152706 0.018356666
-0.042222556 -0.007519676 -0.029015241 -0.036138594 0.01432896 0.008060933 -0.035248455 0.013556514
-0.004891249 -0.027587587 -0.015859842 -0.010657578 -0.019788262 0.011053307 0.02976055 0.003558595
-0.03170873 -0.008992325 -0.0129484 -0.010098528 0.007628166 0.03371046 0.017278876 0.025121173
0.037597697 0.01398082 -0.0055365325 0.025242569 0.020802943 -0.027311021 -0.010756338 0.0058956314
0.02429033 -0.007406133 -0.034605168 -0.049184933 -0.030829294 0.018495958 0.015908945 0.02385272
0.03280619 0.025420148 0.002911629 0.0073976493 0.03718947 -0.013102942 0.030749148 0.0023766863
-0.03245588 -0.015942134 0.017947862 -0.022636466 0.007934574 -0.017895011 0.0014915962 0.008189603
0.014029065 0.039821994 -0.037175998 -0.039350502 0.0078736 0.0076569817 -0.010244261 0.009223729
-0.024779856 -0.036338776 -0.022694953 -0.01909919 -0.00053719507 -0.0029545773 -0.042519692 0.014611819
-0.016051317 0.0022626284 0.02702799 -0.029412042 0.004059357 -0.030529039 0.0047117597 0.0041649556
0.029401068 -0.016346721 -0.04563747 -0.023681583 0.0319253 0.01096866 -0.0030440649 -0.046321943
-0.018890496 0.0149901435 0.019935727 0.031099414 0.029014064 0.032197654 -0.0075600976 -0.0055139475
-0.00018721614 0.022351498 0.01140604 0.029710485 -0.009529718 -0.04613605 0.017123476 -0.011367641
-0.050605603 -0.016979892 0.011644995 0.0068201846 0.009982759 0.023431608 -0.0043161516 0.0047216495
-0.03732568 0.018742919 0.009115115 0.035904814 0.016216043 -0.009338614 -0.036665954 -0.024844429
-0.032169726 -0.025392363 0.0058669914 -0.039287657 -0.020692486 -0.011814898 -0.038991205 0.016916728
-0.00010054784 -0.010623638 0.027105097 -0.02000118 -0.009465958 -0.03077775 -0.007006733 0.023923906
-0.0009267512 -0.041706823 -0.03058361 -0.019813977 -0.008004386 -0.018051911 -0.03849354 -0.034980454
0.027223919 0.000952441 0.011296585 0.0033958175 0.005243067 -0.046036296 0.009748883 0.037016943
0.006272921 0.025548829 -0.012658408 0.012957705 0.032673314 0.014798521 0.0018392697 0.00037576287
-0.032053135 -0.026544778 0.01234268 -0.03342844 -0.041134853 0.0030263662 -0.009825512 0.0001647292
-0.037634503 -0.013352834 -0.019626183 0.02074183 -0.022845529 -0.051816966 0.026771687 0.012417688
0.035272755 -0.02169192 0.04041531 -0.007986175 -0.01156836 0.017809113 -0.0077734143 -0.0197797
0.043717433 -0.03186945 0.031668417 -0.0115305185 -0.008577906 -0.025248365 0.018535322 -0.023398306
0.008271316 -0.02908146 0.02560333 -0.022222498 -0.00908607 -0.032114252 -0.034236073 -0.029886594
-0.013610112 -0.025442384 -0.0053209653 -0.026087858 -0.025838874 -0.035021022 0.00054628705 0.017215835
-0.02971554 0.023421274 0.00071584294 -0.012065432 -0.022062391 0.013661235 0.020568548 -0.02965274

conv21.bias f4 [64]
00000000: c928 f33c 00f6 f33d e98c 43bd 00c3 dfbc
00000010: bb80 933b 8fd6 25bd bc89 c53d 4064 b93c
00000020: a2de a73c 498c 913d ce53 60bd a9de a33c
00000030: bf4b f73a 468b c1bb a907 f13c 9d35 8fbd
00000040: e33d 1ebd 781e 943d 2002 aabc 3e5c 043e
00000050: 5f04 d83d f5a5 f2bc 439c c83d a52b 1bbd
00000060: 912b b23c 939c 3dbd d8a6 a0bd 79b3 5a3c
00000070: 97ea d4bb 352f 0f3b 950e 163d 65c8 7ebd
00000080: afa8 2dbd 6254 023e d147 0a3e 8782 523c
00000090: f7e0 aa39 55b2 1dbd d4bb 2dbc 5912 0a3d
000000a0: 6a56 0b3e 2340 5abd fccc 3cbd 1db9 5339
000000b0: f6fc 993d fd33 f5bd 1eb1 ebbc 6a04 9abd
000000c0: b122 3dbd 125f d33c 5d02 1cbd d0fd 013e
000000d0: 9b09 d53d 2650 eebd c0e8 3a3c 2a93 dfbd
000000e0: ed7c 88bc 7059 a3bd 642b c4bc d4a3 8fbc
000000f0: 2bed 053e b849 3b3c a6d6 b0bc a277 46bc
0.029682534 0.11912155 -0.047741804 -0.027314663 0.00450143 -0.040487822 0.09645411 0.02263081
0.020491902 0.071068354 -0.054767422 0.020003634 0.0018867179 -0.0059064953 0.029422598 -0.06992648
-0.03863324 0.07232374 -0.020752966 0.12925813 0.10547709 -0.02962015 0.097954296 -0.03788342
0.02174929 -0.0462919 -0.07844323 0.013348454 -0.006497692 0.0021848206 0.036635 -0.06220283
-0.042397197 0.12727502 0.13503958 0.012848503 0.0003259254 -0.03850015 -0.010603864 0.033708904
0.13607183 -0.05328382 -0.046093926 0.00020191488 0.075189516 -0.119728066 -0.02877098 -0.07520373
-0.046175662 0.025802169 -0.03808819 0.12694478 0.10402223 -0.11636381 0.011408031 -0.10916741
-0.016661132 -0.07976043 -0.023946472 -0.017534174 0.13078754 0.01143115 -0.021586727 -0.012113484
